notebooks/runs/milkshake/milkshake_0_200.pt (torch, 180536 bytes, 39 tensors)

WTE.weight f4 [65, 42]
-0.56405514 0.8498077 -0.5172447 1.6151788 -0.11018544 -1.1542851 2.0033696 -0.68753886
0.2915303 0.25653592 0.4279979 1.2206209 -1.067428 -1.0109974 2.0562203 -0.45422247
0.9480781 -0.39463806 -1.5411509 1.8921125 1.6901958 1.7561783 0.9230705 -0.86467177
1.5455705 0.51853395 0.51560533 -0.12011685 1.4960171 0.55125964 -0.6159963 -0.64565814
-0.8184322 -1.8236451 0.27578947 -1.1844122 -1.3148298 0.35027102 0.58622265 -0.033774875
-1.1842859 -0.012637171 0.6438169 -1.1354439 0.23743877 0.7423426 -1.0539007 1.185242
1.4091212 -0.0880065 -1.574529 0.8194156 0.14657016 -0.6988111 0.052253865 0.06468397
-1.4954231 0.040707532 -1.0920753 -0.45964915 -0.40332744 1.3804879 -1.1331992 0.77514154
-0.35798404 -0.112219445 -0.48088205 -0.22757748 1.2485865 0.038989592 -0.17562701 0.71780664
-1.587602 -1.8930424 0.46377155 0.4023045 -1.7537167 0.25670046 0.81838965 -1.4986951
0.39584216 -0.61451286 -0.823125 -1.0544872 1.5637014 -1.6733422 -1.0360147 -0.7140246
-0.94895095 0.30905434 0.31210262 0.664747 -0.040271364 0.17092957 -0.67867327 0.19398451
1.3415393 1.109016 1.6827316 0.230236 1.077842 0.1461741 0.15653674 -0.8205958
0.67693365 2.79872 -0.6416295 0.8781598 1.8792121 -0.74623376 -1.5315738 0.11893167
1.2599174 -1.0969251 1.9497555 -0.36155298 0.2256534 0.24408267 -0.3778632 1.9122293
1.2726578 -0.5307807 -0.83848405 -0.07209907 -0.6929514 -0.8635838 -0.6028381 -0.24555668
2.2559972 -0.75940895 -0.97044206 -0.533568 -0.3696669 0.1326961 -1.2210156 -0.8167722
-0.2720391 -0.32068008 0.5149229 1.106918 2.0355394 -1.0497371 -0.88230574 -0.8532889
-0.9829418 0.953537 -1.2163981 0.5744015 0.40018183 -0.7770789 0.4434162 0.47507697
-1.447071 -0.4298577 0.14265756 0.95415205 -0.7130787 -1.8536141 0.34072468 1.8615532
-0.39993405 0.29360616 -0.5648764 0.02189228 0.45748535 0.9999485 1.306654 1.4264892
0.6922314 0.060115706 2.1370957 -0.04426431 0.76855356 -0.7859059 -1.1264939 1.4435734
-0.7614735 -1.3903165 0.8866868 0.10921392 1.1366787 -0.43113488 0.24379791 1.3302029
-1.3592277 -0.13043827 0.5224349 1.0661348 -0.49305704 -0.46238393 1.5268661 1.43285
0.9555465 0.0066134864 0.89980716 1.0961367 0.8329277 -0.9431318 0.26922938 -1.4075837
-1.2929678 -0.2145535 2.3650613 -0.21506114 1.356208 1.2936207 0.69470084 -0.34142184
-0.2796022 -1.7626574 -0.6958201 -0.89526033 1.4084107 0.6554072 -0.12136773 0.42355254
-0.61463875 -0.8370874 -0.43797064 -1.1525996 0.038480874 0.18653892 0.39089692 0.17473622
0.3659882 0.27736244 -1.7279804 1.743693 0.4458602 -0.4042089 1.6268257 -0.09361133
-0.60455036 -0.50523794 0.2804668 0.44850934 1.1488744 -1.8742551 -2.9142451 -1.86527
-2.0689385 0.23159677 -0.5647863 0.29275075 1.2464328 -0.7702192 -1.5818168 -0.93011254
0.23357634 -0.5998992 1.1404277 -1.8561957 -0.21355167 0.10359911 -0.7108941 0.4567606
00000000: eb65 10bf ff8c 593f 266a 04bf 2ebe ce3f
00000010: e7a8 e1bd 9dbf 93bf 3537 0040 8c02 30bf
00000020: 7643 953e ad58 833e 8a22 db3e 4e3d 9c3f
00000030: 7ba1 88bf 5d68 81bf 1d99 0340 d98f e8be
00000040: 3fb5 723f 000e cabe 6f44 c5bf be30 f23f
00000050: 5658 d83f 73ca e03f 594e 6c3f 215b 5dbf
00000060: 41d5 c53f a4be 043f b6fe 033f d3ff f5bd
00000070: 7d7d bf3f 5a1f 0d3f efb1 1dbf da49 25bf
00000080: c684 51bf 346d e9bf 4734 8d3e d29a 97bf
00000090: 584c a8bf b956 b33e b012 163f 8657 0abd
000000a0: ae96 97bf 230c 4fbc 2fd1 243f 3a56 91bf
000000b0: 2623 733e 2a0a 3e3f 38e6 86bf 03b6 973f
000000c0: 155e b43f c03c b4bd 2b8a c9bf 39c5 513f
000000d0: 7d16 163e 49e5 32bf 2608 563d 0779 843d
000000e0: 066a bfbf f1bc 263d 20c9 8bbf 2257 ebbe
000000f0: ef80 cebe d4b3 b03f ac0c 91bf ad6f 463f
00000100: af49 b7be 4fd3 e5bd 2c36 f6be 120a 69be
00000110: afd1 9f3f 8db3 1f3d 91d7 33be 2dc2 373f
00000120: 8b36 cbbf 374f f2bf 7773 ed3e dbfa cd3e
00000130: ca79 e0bf 3e6e 833e fc81 513f 3ed5 bfbf
00000140: d3ab ca3e b750 1dbf 52b8 52bf 70f9 86bf
00000150: 5e27 c83f 1430 d6bf 219c 84bf 51ca 36bf
00000160: 73ee 72bf 5f3c 9e3e eacb 9f3e dc2c 2a3f
00000170: 96f3 24bd 2908 2f3e 88bd 2dbf e0a3 463e
00000180: 8fb7 ab3f 3cf4 8d3f c063 d73f fcc2 6b3e
00000190: baf6 893f aaae 153e 2b4b 203e 9112 52bf
000001a0: 864b 2d3f 3a1e 3340 d541 24bf 15cf 603f
000001b0: 068a f03f 2d09 3fbf 9c0a c4bf 7392 f33d
000001c0: f944 a13f 0b68 8cbf 9791 f93f 791d b9be
000001d0: af11 673e cff0 793e 4977 c1be eec3 f43f
000001e0: 73e6 a23f 3ee1 07bf e4a6 56bf ada8 93bd
000001f0: 4365 31bf d413 5dbf 9953 1abf 3673 7bbe
00000200: 4262 1040 a068 42bf e46e 78bf ea97 08bf
00000210: fb44 bdbe 7de1 073e 3d4a 9cbf fc17 51bf
00000220: b548 8bbe 2e30 a4be fdd1 033f 7daf 8d3f
00000230: 4746 0240 c95d 86bf cade 61bf 2471 5abf
00000240: 13a2 7bbf 001b 743f efb2 9bbf fa0b 133f
00000250: a2e4 cc3e a5ee 46bf 7307 e33e 4a3d f33e
00000260: 9f39 b9bf 4f16 dcbe d314 123e 4f43 743f
00000270: 538c 36bf 3a43 edbf 7773 ae3e 6047 ee3f
00000280: 28c4 ccbe 8c53 963e bd9b 10bf 7057 b33c
00000290: 853b ea3e a0fc 7f3f 7040 a73f 3397 b63f
000002a0: 1436 313f e33b 763d 2dc6 0840 7e4e 35bd
000002b0: edbf 443f 2131 49bf f430 90bf 03c7 b83f
000002c0: edef 42bf e4f5 b1bf e8fd 623f 8cab df3d
000002d0: b07e 913f b6bd dcbe 29a6 793e 1744 aa3f
000002e0: 2cfb adbf 9c91 05be 4bbe 053f 1b77 883f
000002f0: f971 fcbe 96bd ecbe 5970 c33f a167 b73f
00000300: b29e 743f f2b5 d83b c359 663f 354e 8c3f
00000310: c03a 553f 1671 71bf 6fd8 893e b42b b4bf
00000320: f87f a5bf eab3 5bbe 2a5d 1740 fd38 5cbe
00000330: 3998 ad3f 5d95 a53f ead7 313f d8ce aebe
00000340: 0528 8fbe c29e e1bf 4421 32bf c82f 65bf
00000350: cd46 b43f c4c8 273f a58f f8bd e1db d83e
00000360: f758 1dbf 5c4b 56bf b03d e0be 6288 93bf
00000370: 1f9e 1d3d 0f04 3f3e a423 c83e 0dee 323e
00000380: ce62 bb3e 7302 8e3e 762e ddbf 5531 df3f
00000390: ca47 e43e 78f4 cebe d33b d03f 4cb7 bfbd
000003a0: d0c3 1abf 4657 01bf 5899 8f3e 04a3 e53e
000003b0: 510e 933f 97e7 efbf fe82 3ac0 2bc1 eebf
000003c0: 7d69 04c0 b427 6d3e d695 10bf 6de3 953e
000003d0: 1c8b 9f3f 162d 45bf f978 cabf db1b 6ebf
000003e0: a32e 6f3e fe92 19bf 89f9 913f d297 edbf
000003f0: 4aad 5abe c52b d43d 28fd 35bf 86dc e93e

blocks.0.CausalSelfAttn.W_Q.weight f4 [42, 42]
0.11781545 0.073961996 0.05513577 -0.04841868 0.010229691 -0.08373892 0.06445105 0.13709733
-0.1913274 0.15669216 -0.18580402 -0.18711005 -0.18014307 0.091371685 -0.04597196 -0.08083476
-0.062045574 -0.09390303 0.028336577 0.175076 0.014658715 -0.14608282 -0.0056311334 -0.1677228
-0.050861854 -0.073207274 0.13458923 0.034430604 -0.17780364 -0.19866236 -0.025938194 0.17987174
0.046757236 -0.08698106 0.17910221 -0.06406456 -0.023748329 -0.19890255 0.057235844 0.071886264
0.21449906 -0.16592112 0.16079666 0.11878806 0.06987573 0.10247659 -0.06267175 0.08516871
-0.027617218 -0.0024264487 -0.14890195 -0.012937229 -0.039709613 -0.07321272 -0.117853284 -0.13171662
-0.11953664 -0.030899538 0.061396524 0.096775554 -0.117544726 0.17461324 0.18066616 -0.087373026
0.07828431 0.083153285 -0.10818806 -0.05636136 0.06438038 -0.14311858 -0.095167756 -0.10866253
0.10054544 -0.042035468 0.05986167 -4.482435e-05 0.10583097 0.043798245 -0.13717693 -0.18784557
0.00554216 -0.12012063 0.037604045 -0.09763831 -0.10871487 -0.0064482572 0.08703792 0.10850159
-0.11144112 0.045898143 -0.033159934 0.065875895 -0.07161706 -0.0015272215 0.0808417 0.082007326
0.030633964 -0.014057222 0.096641585 -0.18794851 -0.07775811 0.12991817 0.18842998 0.15728658
-0.11235498 0.050450046 0.17465904 0.027899971 -0.056904446 0.039887477 -0.13179028 0.095866434
-0.010464256 0.05186518 -0.18876602 -0.09855176 0.031739283 -0.04593852 -0.107137844 0.08633815
-0.07219609 -0.03233833 0.124782905 0.00044435542 0.11371876 0.17506027 0.10364639 0.13623303
0.10020843 0.039486106 0.044760797 -0.04688241 0.0005951547 0.053640645 -0.10018231 -0.0532687
-0.17440769 -0.12998213 0.0047860644 -0.062565744 -0.086834475 -0.11609993 -0.030869247 -0.10603434
-0.13028221 0.014813301 0.23165938 -0.111408204 -0.023098752 0.06447498 0.192756 0.04727279
0.15763032 -0.08364937 -0.094688155 -0.10593834 0.05398137 -0.034447014 0.073850706 -0.03457499
0.18576466 0.048739437 -0.10962893 0.07125819 -0.108928755 0.088973075 0.19028252 0.010251547
-0.00024454348 0.06546591 -0.12986788 -0.058848955 0.17887059 -0.06739555 -0.070181586 0.18771252
-0.040118963 0.13311422 -0.23192093 0.027836667 -0.10913967 -0.08700964 -0.07895249 -0.054188356
0.035857346 0.049707018 0.06821564 0.083740085 -0.047034875 -0.11189189 -0.10732419 0.039063726
0.20542833 -0.084235735 0.13313287 -0.18215023 0.083822116 -0.15782322 0.10821391 0.07257238
-0.039473873 0.1347484 0.036557343 0.0049710134 -0.09926847 -0.10077277 0.15103978 -0.020382969
0.069902 0.0016202139 -0.05062916 -0.090217836 -0.11051303 -0.18325046 0.015655508 -0.10073858
-0.10744591 0.015240892 0.11175328 0.061058953 0.08710243 -0.024692241 -0.16349274 -0.021091068
0.106581554 0.008256707 -0.040488794 -0.15363617 0.039046027 -0.079318866 -0.104695305 0.030193068
0.09071347 0.16715883 -0.09496587 -0.09382294 0.08337525 -0.11940123 0.13036036 -0.10353466
0.0389254 0.03277165 0.13100475 -0.0008643482 -0.028206943 -0.005115331 0.08164281 -0.012851404
0.116051696 0.1257873 0.11057055 -0.11882553 0.0765027 0.028559601 0.09207737 0.122732066
00000000: 3a49 f13d 6379 973d 0cd6 613d aa52 46bd
00000010: 6f9a 273c 507f abbd e9fe 833d 3e63 0c3e
00000020: 54eb 43be e973 203e 6943 3ebe c799 3fbe
00000030: 6d77 38be 1421 bb3d 184d 3cbd b28c a5bd
00000040: 8023 7ebd 3b50 c0bd 1c22 e83c 1f47 333e
00000050: 1b2b 703c bc96 15be 5f85 b8bb 87bf 2bbe
00000060: 8554 50bd b2ed 95bd c2d1 093e 1b07 0d3d
00000070: 2812 36be 256e 4bbe 567c d4bc 4c30 383e
00000080: 8484 3f3d 2023 b2bd 9266 373e 4834 83bd
00000090: db8b c2bc 1cad 4bbe 2270 6a3d 1b39 933d
000000a0: a4a5 5b3e 3ae7 29be e1a7 243e 2847 f33d
000000b0: 021b 8f3d 3fdf d13d 0c5a 80bd ef6c ae3d
000000c0: 813d e2bc 0e05 1fbb c179 18be acf6 53bc
000000d0: 8ca6 22bd 8df0 95bd 105d f1bd b9e0 06be
000000e0: a0cf f4bd 0721 fdbc ec7a 7b3d 4332 c63d
000000f0: 4abb f0bd d0cd 323e 8d00 393e a1f0 b2bd
00000100: 8653 a03d 454c aa3d b491 ddbd 2bdb 66bd
00000110: dcd9 833d ad8d 12be 50e7 c2bd 768a debd
00000120: c5ea cd3d 622d 2cbd 8331 753d c801 3cb8
00000130: e8bd d83d ca65 333d 1c78 0cbe 975a 40be
00000140: 029b b53b ce01 f6bd b306 1a3d 98f6 c7bd
00000150: e7a5 debd e74b d3bb f040 b23d 1536 de3d
00000160: 3e3b e4bd b1ff 3b3d b6d2 07bd f1e9 863d
00000170: f7ab 92bd 0d2d c8ba 5590 a53d 75f3 a73d
00000180: 14f4 fa3c 4350 66bc 06ec c53d 9375 40be
00000190: a53f 9fbd 4509 053e caf3 403e bc0f 213e
000001a0: 5e1a e6bd b5a4 4e3d d2d9 323e 7b8e e43c
000001b0: a314 69bd 0d61 233d 08f4 06be 9f55 c43d
000001c0: 4572 2bbc 9570 543d e14b 41be 81d5 c9bd
000001d0: 0d01 023d 082a 3cbd 166b dbbd 0ed2 b03d
000001e0: 8bdb 93bd 3275 04bd 2e8e ff3d 60f8 e839
000001f0: 62e5 e83d 0043 333e 8f44 d43d ac80 0b3e
00000200: 143a cd3d 2fbc 213d 1957 373d c507 40bd
00000210: 2804 1c3a 4bb6 5b3d 622c cdbd 4830 5abd
00000220: ee97 32be 091a 05be 6bd4 9c3b 7822 80bd
00000230: 46d6 b1bd cdc5 edbd 81e1 fcbc 8828 d9bd
00000240: b368 05be 7db3 723c 1e38 6d3e fc29 e4bd
00000250: 9839 bdbc 750b 843d d461 453e 1da1 413d
00000260: d869 213e 5c50 abbd ddeb c1bd 33f6 d8bd
00000270: 921b 5d3d 5018 0dbd 0a3f 973d 819e 0dbd
00000280: 1739 3e3e 01a3 473d 2285 e0bd d0ef 913d
00000290: 0a16 dfbd 8437 b63d 6cd9 423e 1bf6 273c
000002a0: 1236 80b9 fe12 863d 16fc 04be 9a0b 71bd
000002b0: da29 373e ae06 8abd 5dbb 8fbd b637 403e
000002c0: c853 24bd 184f 083e ae7c 6dbe b909 e43c
000002d0: 9f84 dfbd 1c32 b2bd d8b1 a1bd 9cf4 5dbd
000002e0: 27df 123d 9699 4b3d a4b4 8b3d ec7f ab3d
000002f0: a4a7 40bd 9327 e5bd c9cc dbbd 4901 203d
00000300: ce5b 523e c983 acbd fc53 083e 9785 3abe
00000310: eeaa ab3d 699c 21be 419f dd3d d4a0 943d
00000320: 5baf 21bd 7cfb 093e 27bd 153d e2e3 a23b
00000330: 454d cbbd f461 cebd 2caa 1a3e 2ffa a6bc
00000340: c828 8f3d 5b5d d43a 8660 4fbd 21c4 b8bd
00000350: a854 e2bd 02a6 3bbe fb3f 803c 0750 cebd
00000360: 9a0c dcbd efb4 793c e7de e43d f418 7a3d
00000370: c262 b23d 6247 cabc a46a 27be 2dc7 acbc
00000380: 6e47 da3d 2447 073c 94d7 25bd cd52 1dbe
00000390: baee 1f3d ee71 a2bd 7e6a d6bd 7457 f73c
000003a0: fcc7 b93d af2b 2b3e 777d c2bd 3e26 c0bd
000003b0: a5c0 aa3d a288 f4bd 307d 053e fb09 d4bd
000003c0: 3d70 1f3d 913b 063d 1c26 063e 6d95 62ba
000003d0: 3f12 e7bc 829e a7bb 5834 a73d b28e 52bc
000003e0: 83ac ed3d 63ce 003e d072 e23d cd5a f3bd
000003f0: 73ad 9c3d d3f5 e93c 0f93 bc3d f35a fb3d

blocks.0.CausalSelfAttn.W_Q.bias f4 [42]
0.07251191 0.013889734 -0.0247677 -0.1675774 0.06432679 -0.11633733 0.0606959 -0.043730773
-0.040138282 -0.12545104 0.019276401 -0.014413142 -0.030474957 0.10717109 0.086697854 -0.05338033
0.011238322 0.14522155 -0.07843181 -0.09018892 0.115646236 0.13705584 0.12157592 -0.1145151
-0.08967057 0.14881416 0.08387659 0.0750778 -0.0049497127 -0.13886997 -0.0067053842 0.17653722
-0.090866394 0.024740664 0.06008296 -0.01481056 0.1520232 0.02503785 -0.066646695 0.1622391
-0.064920805 -0.09837459
00000000: 2081 943d c491 633c a2e5 cabc 6999 2bbe
00000010: c4bd 833d 4442 eebd 449c 783d 0a1f 33bd
00000020: 0a68 24bd 3d76 00be 8be9 9d3c 1925 6cbc
00000030: 9ea6 f9bc 847c db3d a58e b13d 55a5 5abd
00000040: f020 383c f5b4 143e dba0 a0bd f8b4 b8bd
00000050: efd7 ec3d 5e58 0c3e ccfc f83d e586 eabd
00000060: 34a5 b7bd bd62 183e 7dc7 ab3d 64c2 993d
00000070: 3331 a2bb ee33 0ebe d7b8 dbbb 2cc6 343e
00000080: 2918 babd efac ca3c 8d19 763d fea7 72bc
00000090: f8ab 1b3e 2d1c cd3c 107e 88bd 0222 263e
000000a0: 33f5 84bd 9e78 c9bd

blocks.0.CausalSelfAttn.W_K.weight f4 [42, 42]
-0.01340363 -0.10693003 0.11730666 0.036371488 0.062088575 -0.07012967 -0.066602364 0.17919302
0.02071707 -0.007601476 -0.018771863 0.06272012 0.05304861 -0.07349488 0.07492013 -0.08733652
-0.22410782 -0.19024415 -0.07769324 0.07058551 0.21929468 -0.13010873 -0.037204996 0.07791659
0.04313334 -0.013754853 -0.06369882 -0.011345645 -0.0253848 -0.2034459 -0.109507754 0.038210258
0.110448316 0.072327405 0.07598545 0.20092556 -0.058390915 -0.028335514 0.15733643 0.077260554
-0.052915502 -0.1042372 -0.12707673 -0.07997404 0.07137037 -0.11395676 0.004327371 0.09364922
0.081513844 0.021983603 0.0032814436 -0.03583518 0.07107463 0.18624453 0.15284468 -0.031415414
-0.09408593 0.18848649 -0.061217498 0.049645424 0.122707196 0.064526774 0.07734206 0.004223153
-0.20908791 -0.024840767 0.15194693 0.17692636 0.048416846 0.06587195 -0.20207976 -0.19754484
-0.093508825 -0.09221267 -0.012879248 0.110711165 -0.098223045 -0.084603176 0.26311517 0.03271242
-0.15784991 0.048429802 0.13307884 -0.09050933 0.06237448 -0.0036422187 -0.15812702 -0.00691553
-0.15819934 0.06445718 -0.07408706 0.09771291 0.103369206 0.049545553 -0.115551 -0.09576006
0.14978941 -0.025308652 0.09992894 0.047120374 -0.06453417 0.14383872 0.020385742 -0.0079937065
-0.076894134 0.0456431 -0.0763957 0.047616396 -0.10277538 -0.13829595 0.16177483 0.021916473
-0.0687744 0.15054761 0.084795795 -0.09663075 0.120963976 -0.173104 -0.15889941 -0.07701436
-0.11116173 0.033821017 -0.032834444 -0.14251637 0.15151869 0.017900268 -0.07745148 -0.09460304
-0.050763533 0.08204799 0.19465123 0.09584651 0.03540039 -0.08280973 0.058596257 -0.13528991
0.03966976 0.016645664 -0.16852489 0.06611238 -0.03437832 0.09654643 -0.07310406 -0.058728103
0.22243626 0.07170406 0.07580539 0.0013222832 -0.09648207 0.17278114 0.041737907 -0.07640308
0.053899974 -0.024407646 -0.20316285 -0.12831801 0.19563031 -0.055827487 0.02255767 0.12652256
0.1034381 0.033651844 0.12885852 -0.06755832 0.035757832 0.1946592 0.0786669 -0.07053573
-0.20027931 -0.10899917 0.100446135 -0.030574966 0.21168679 0.003296131 -0.14853363 0.16197325
0.1695124 0.0007535625 -0.11144998 -0.030213289 -0.09972054 0.13722317 0.08313058 -0.122345366
0.08042179 -0.15581031 0.18937647 0.08719629 0.11787288 -0.13380453 -0.18962237 -0.018750979
0.009795655 0.11099202 -0.008511763 -0.13971363 -0.20223698 -0.036234483 0.07094246 -0.041083775
0.038519155 -0.07387366 0.14301221 0.14482184 -0.17382607 -0.12837552 0.1419023 -0.048963036
0.09664621 -0.119581126 -0.1102548 0.12393537 -0.046882186 0.04023808 -0.02110843 0.11506299
-0.13604437 0.01222097 0.022715354 -0.11508572 0.025800517 -0.018170051 0.14490114 -0.09520249
-0.013927931 -0.11421428 0.02037611 0.12718038 -0.059293818 0.025053052 -0.11469303 0.068744674
-0.024012629 -0.08652089 0.05886136 -0.081720255 0.02354313 0.21819957 -0.15475127 -0.1502732
0.1815165 0.012890124 -0.081493184 -0.029413044 0.084175386 0.12174885 -0.07025963 0.17069486
0.11217113 -0.109266855 0.004386523 -0.05450075 0.17598157 0.17884582 -0.096787095 -0.05429539
00000000: e69a 5bbc 22fe dabd 793e f03d 45fa 143d
00000010: 9750 7e3d 25a0 8fbd d266 88bd 607e 373e
00000020: d8b6 a93c cd15 f9bb 73c7 99bc 6873 803d
00000030: 8049 593d 7c84 96bd ba6f 993d 7ddd b2bd
00000040: 857c 65be 5dcf 42be a21d 9fbd 238f 903d
00000050: c98e 603e 393b 05be 4464 18bd bc92 9f3d
00000060: 96ac 303d 095c 61bc 8774 82bd 16e3 39bc
00000070: c9f3 cfbc 1f54 50be 9a45 e0bd 5c82 1c3d
00000080: ba32 e23d 6420 943d 429e 9b3d 6ebf 4d3e
00000090: 502b 6fbd e11f e8bc cd1c 213e c83a 9e3d
000000a0: edbd 58bd 507a d5bd 6720 02be 6ec9 a3bd
000000b0: a12a 923d 2962 e9bd 9ecc 8d3b 2acb bf3d
000000c0: bbf0 a63d f516 b43c 7d0d 573b e9c7 12bd
000000d0: 938f 913d e3b6 3e3e 5183 1c3e 73ad 00bd
000000e0: 20b0 c0bd 9a02 413e 33bf 7abd 0059 4b3d
000000f0: e94d fb3d 9d26 843d 8465 9e3d 6062 8a3b
00000100: 241b 56be dd7e cbbc fa97 1b3e 2f2c 353e
00000110: be50 463d dfe7 863d ffed 4ebe 3249 4abe
00000120: 8e81 bfbd ffd9 bcbd 7b03 53bc 89bc e23d
00000130: 2a29 c9bd 6e44 adbd 08b7 863e 75fd 053d
00000140: 68a3 21be 545e 463d d245 083e f55c b9bd
00000150: 627c 7f3d 4ab2 6ebb 0dec 21be ac9b e2bb
00000160: 02ff 21be 2002 843d f5ba 97bd b51d c83d
00000170: 3cb3 d33d 47f0 4a3d 01a6 ecbd da1d c4bd
00000180: 6562 193e 1754 cfbc 8ba7 cc3d 4b01 413d
00000190: 7e2a 84bd 754a 133e 0000 a73c 09f8 02bc
000001a0: ac7a 9dbd 42f4 3a3d 5975 9cbd 6909 433d
000001b0: e67b d2bd 749d 0dbe 4da8 253e 2d8a b33c
000001c0: 98d9 8cbd 2729 1a3e 6ba9 ad3d 58e6 c5bd
000001d0: f6bb f73d 2d42 31be 87b6 22be b4b9 9dbd
000001e0: c3a8 e3bd e887 0a3d 697d 06bd d0ef 11be
000001f0: b727 1b3e 95a3 923c e29e 9ebd 3dbf c1bd
00000200: 6ced 4fbd c708 a83d a752 473e 2d4b c43d
00000210: 0000 113d 2698 a9bd a102 703d 7089 0abe
00000220: c27c 223d 7d5c 883c ca91 2cbe ed65 873d
00000230: 48d0 0cbd 22ba c53d 95b7 95bd e18c 70bd
00000240: 55c6 633e 94d9 923d db3f 9b3d 7650 ad3a
00000250: 6498 c5bd 8aed 303e 5ef5 2a3d 3879 9cbd
00000260: 38c6 5c3d 8bf2 c7bc ec09 50be cc65 03be
00000270: 5053 483e 5dab 64bd ddca b83c 218f 013e
00000280: 5bd7 d33d 84d6 093d 7df3 033e 045c 8abd
00000290: ce76 123d be54 473e 1d1c a13d 0975 90bd
000002a0: 0516 4dbe f53a dfbd b4b6 cd3d 5a78 fabc
000002b0: 6cc4 583e e703 583b 3319 18be 51dc 253e
000002c0: a994 2d3e b98a 453a e33f e4bd dc81 f7bc
000002d0: 483a ccbd 3b84 0c3e 5e40 aa3d 3590 fabd
000002e0: 2eb4 a43d bd8c 1fbe e8eb 413e f893 b23d
000002f0: 5667 f13d 0e04 09be 5e2c 42be a79b 99bc
00000300: f47d 203c c94f e33d ec74 0bbc 1711 0fbe
00000310: 3617 4fbe 9c6a 14bd 484a 913d 7647 28bd
00000320: 43c6 1d3d 134b 97bd cb71 123e 2d4c 143e
00000330: 76ff 31be df74 03be d64e 113e 778d 48bd
00000340: 73ee c53d f3e6 f4bd 45cd e1bd d4d1 fd3d
00000350: 8907 40bd afd0 243d 96eb acbc 25a6 eb3d
00000360: 374f 0bbe 773a 483c 8d15 ba3c 10b2 ebbd
00000370: 9b5b d33c 5cd9 94bc f760 143e 86f9 c2bd
00000380: fa31 64bc 2de9 e9bd cdeb a63c 933b 023e
00000390: 13de 72bd 0f3c cd3c 2ee4 eabd 02ca 8c3d
000003a0: 22b6 c4bc dd31 b1bd 9c18 713d f35c a7bd
000003b0: 86dd c03c b56f 5f3e 1e77 1ebe 38e1 19be
000003c0: 76df 393e 1931 533c e6e5 a6bd a0f3 f0bc
000003d0: 2564 ac3d 7657 f93d 48e4 8fbd a2ca 2e3e
000003e0: fab9 e53d 4dc7 dfbd d2bc 8f3b 2e3c 5fbd
000003f0: 8334 343e 5c23 373e 5038 c6bd d864 5ebd

blocks.0.CausalSelfAttn.W_K.bias f4 [42]
0.09742164 0.10757722 0.030269442 -0.05712019 0.023297543 0.08690646 0.020663626 0.1336309
0.07059711 0.008827425 -0.07086004 -0.15063733 0.12194894 -0.10307836 0.15357527 0.0014493582
0.10443787 0.05928523 -0.020165363 0.06773381 -0.07940626 -0.05915533 -0.047593996 0.056070272
0.07454886 -0.10867132 0.14225727 -0.07964522 -0.14875022 0.11609448 -0.13138992 0.07074792
0.07398737 0.092037775 -0.10691291 0.10751066 -0.111289315 0.022291707 -0.108139984 -0.027597116
-0.018344788 -0.028994314
00000000: ff84 c73d 7251 dc3d 9ff7 f73c dcf6 69bd
00000010: 7dda be3c 04fc b13d c446 a93c 8ad6 083e
00000020: 3895 903d e7a0 103c 121f 91bd ac40 1abe
00000030: 5ec0 f93d bf1a d3bd d642 1d3e 64f8 bd3a
00000040: 86e3 d53d 12d5 723d d531 a5bc 06b8 8a3d
00000050: c09f a2bd dc4c 72bd ecf1 42bd f1a9 653d
00000060: 13ad 983d 128f debd e4ab 113e 081d a3bd
00000070: fa51 18be f1c2 ed3d 148b 06be 49e4 903d
00000080: b186 973d 4d7e bc3d 28f5 dabd 8d2e dc3d
00000090: a7eb e3bd 199d b63c 7f78 ddbd 5913 e2bc
000000a0: cf47 96bc 7c85 edbc

blocks.0.CausalSelfAttn.W_V.weight f4 [42, 42]
0.025855506 0.067108944 0.098201185 -0.007761305 0.11982237 -0.16536438 0.033415996 0.082734674
0.1017651 0.113842174 0.11499127 0.13882102 -0.12871826 0.11607371 -0.0064845546 -0.049722858
-0.1314383 0.13315962 -0.11210868 0.008144477 0.13689123 -0.02857546 0.004701934 0.048567414
0.008520276 -0.07040866 -0.14232118 -0.11299401 -0.046932485 0.13278244 0.14426282 -0.02826438
-0.031300336 0.08815851 0.04686493 0.10726832 -0.006951051 -0.04570142 -0.0072558485 -0.09808014
-0.050312288 -0.08361543 0.08194906 -0.1025933 -0.0011117869 0.022685092 -0.044613056 -0.02804114
0.12654845 -0.00060163776 0.13242956 -0.16625677 -0.0010958309 0.0022659246 0.063432634 0.09046472
0.13095094 -0.041744493 0.015368999 -0.038197033 0.1447106 0.004981826 -0.054418277 -0.119159944
-0.114983365 0.12711668 0.015499656 0.07063899 -0.15507315 -0.12132069 -0.120129846 -0.15654346
0.12697949 0.0025342114 -0.06417629 0.09831315 -0.089595735 -0.122741185 0.080479644 0.060351543
-0.10420787 0.11928338 0.08689713 0.04081868 -0.022064818 -0.097582 0.14799851 -0.11652095
-0.02131507 -0.057750653 0.0924176 -0.021555398 -0.014304832 -0.028088925 -0.014911483 0.06061027
-0.07687123 -0.12087677 -0.04490138 -0.06307936 -0.1334324 0.056909185 -0.1304855 -0.1028156
0.018438598 -0.13584167 0.03775981 0.03910239 -0.10914089 -0.056004357 0.02661287 -0.1370607
0.025846876 -0.0657414 0.07482808 -0.12059135 0.101512015 0.09878497 0.12431133 -0.026657421
-0.009077777 0.102815755 0.08456348 -0.07398372 -0.12888317 0.021128425 -0.1394739 -0.05187326
-0.027436843 0.16923486 0.08748307 -0.14504321 0.034589693 0.1531459 -0.0050902353 -0.002231302
-0.12857513 -0.06152151 0.14793158 -0.016775709 -0.07189548 -0.070543036 -0.005617511 0.021706328
-0.07727105 0.14323 -0.046051927 0.0058852844 0.011540188 -0.15519609 0.12348785 -0.028126622
-0.059067447 -0.012773296 0.13565415 -0.002385772 -0.008540394 -0.06896623 0.10984161 -0.105847195
-0.08818502 -0.12020163 -0.14286643 -0.033755504 -0.12619513 0.10811373 0.12569267 -0.05192492
0.16331656 0.017673701 -0.0101626655 -0.13797903 -0.15983789 0.0043305093 0.06791328 0.0026536887
-0.17684425 0.12024482 -0.039965563 -0.17346196 0.083558455 -0.12444605 0.024472805 0.004568606
-0.0004824554 0.037660606 0.12865175 0.047819834 0.09602722 0.014470891 0.088029265 -0.019586649
0.06339064 0.16091791 0.07011311 0.14726737 -0.019826315 0.07366329 -0.014888121 -0.10732329
-0.011221081 0.14166686 -0.057956573 -0.036182065 0.018631618 0.024864968 -0.02499956 0.10856008
0.10896686 0.092910364 0.13720785 0.021789612 -0.08825102 -0.013717669 0.11271801 0.09250874
-0.17417337 -0.10107147 -0.03100777 0.08516245 -0.06679854 0.04720697 0.03016587 -0.0052045393
0.14431389 -0.011878151 -0.14625613 0.08306748 -0.069562994 0.03514065 0.04997029 -0.04055555
-0.14068499 0.01613346 0.10788036 0.089203104 -0.04890665 -0.021084856 -0.13742206 0.1527882
-0.13300115 0.0100254 -0.14509095 0.13573766 0.09956826 0.1152896 -0.08315775 -0.08786174
0.016552147 -0.07537918 0.04595605 -0.078899354 -0.13172622 0.05116051 -0.13608637 0.15952249
00000000: edce d33c 6a70 893d b41d c93d 8c52 febb
00000010: 6e65 f53d 4855 29be 36df 083d cc70 a93d
00000020: 396a d03d 1626 e93d 8b80 eb3d 1927 0e3e
00000030: b8ce 03be 0eb8 ed3d 637c d4bb 32aa 4bbd
00000040: c397 06be ff5a 083e 3c99 e5bd 6a70 053c
00000050: 372d 0c3e 1517 eabc ae12 9a3b a0ee 463d
00000060: a198 0b3c 6a32 90bd a5bc 11be 6769 e7bd
00000070: 473c 40bd 1ff8 073e a2b9 133e b38a e7bc
00000080: c834 00bd 738c b43d 71f5 3f3d 7eaf db3d
00000090: a4c5 e3bb 6a31 3bbd 78c2 edbb 3ede c8bd
000000a0: 4214 4ebd 913e abbd e9d4 a73d 701c d2bd
000000b0: 61b9 91ba 16d6 b93c 2ebc 36bd 88b6 e5bc
000000c0: eb95 013e 3ab7 1dba 9d9b 073e 373f 2abe
000000d0: fca1 8fba e87f 143b f8e8 813d 9145 b93d
000000e0: 0118 063e 46fc 2abd 41ce 7b3c 7e74 1cbd
000000f0: 042f 143e 963e a33b b3e5 5ebd 210a f4bd
00000100: 667c ebbd e02a 023e 45f2 7d3c 2dab 903d
00000110: 7fcb 1ebe fb76 f8bd a306 f6bd ee4c 20be
00000120: e906 023e 0315 263b dc6e 83bd 6858 c93d
00000130: f87d b7bd bb5f fbbd 83d2 a43d 2e33 773d
00000140: f06a d5bd d84a f43d 1ff7 b13d 7d31 273d
00000150: 47c1 b4bc 12d9 c7bd ec8c 173e 89a2 eebd
00000160: f19c aebc f38b 6cbd 7045 bd3d f294 b0bc
00000170: d05e 6abc bf1a e6bc 4b4f 74bc 7942 783d
00000180: aa6e 9dbd 3d8e f7bd 82ea 37bd c02f 81bd
00000190: 81a2 08be 9b19 693d fe9d 05be fc90 d2bd
000001a0: 8b0c 973c 141a 0bbe 08aa 1a3d d429 203d
000001b0: 4285 dfbd d364 65bd 3c03 da3c a459 0cbe
000001c0: d4bc d33c 6da3 86bd 773f 993d 99f8 f6bd
000001d0: 88e5 cf3d c64f ca3d f096 fe3d aa60 dabc
000001e0: f5ba 14bc 1191 d23d 9e2f ad3d c784 97bd
000001f0: f3f9 03be 8515 ad3c 3fd2 0ebe 0e79 54bd
00000200: 3bc3 e0bc e74b 2d3e 532a b33d 3586 14be
00000210: ecad 0d3d 47d2 1c3e fdcb a6bb 093b 12bb
00000220: 33a9 03be fbfd 7bbd 607b 173e 366d 89bc
00000230: f03d 93bd de78 90bd 1913 b8bb 78d1 b13c
00000240: 4940 9ebd e3aa 123e f2a0 3cbd 58d9 c03b
00000250: 0f13 3d3c b9eb 1ebe 33e7 fc3d cd69 e6bc
00000260: b5f0 71bd 1647 51bc ece8 0a3e 9d5a 1cbb
00000270: 02ed 0bbc 2b3e 8dbd a3f4 e03d 6ac6 d8bd
00000280: 599a b4bd 462c f6bd 944b 12be 3643 0abd
00000290: 4c39 01be bb6a dd3d 94b5 003e 3aaf 54bd
000002a0: 753c 273e 70c8 903c 4f81 26bc 604a 0dbe
000002b0: 8bac 23be f2e6 8d3b 1e16 8b3d 82e9 2d3b
000002c0: a916 35be eb42 f63d eeb2 23bd 03a0 31be
000002d0: b220 ab3d 92dd febd 317b c83c 3fb4 953b
000002e0: 11f2 fcb9 0242 1a3d 49bd 033e bbde 433d
000002f0: eba9 c43d 5117 6d3c b048 b43d 2e74 a0bc
00000300: f4d2 813d aac7 243e 7697 8f3d 42cd 163e
00000310: cc6a a2bc c7dc 963d 4eed 73bc 50cc dbbd
00000320: a0d8 37bc 1e11 113e df63 6dbd a533 14bd
00000330: 56a1 983c 9eb1 cb3c e1cb ccbc bf54 de3d
00000340: 042a df3d ca47 be3d 3780 0c3e 2180 b23c
00000350: f3bc b4bd 13c0 60bc b3d8 e63d 3975 bd3d
00000360: 815a 32be 8ffe cebd 0204 febc a769 ae3d
00000370: accd 88bd 195c 413d 6a1e f73c d78a aabb
00000380: 05c7 133e 949c 42bc 2bc4 15be 481f aa3d
00000390: 0b77 8ebd a4ef 0f3d a6ad 4c3d 941d 26bd
000003a0: ba0f 10be 512a 843c 61f0 dc3d 1eb0 b63d
000003b0: 5752 48bd 26ba acbc 5eb8 0cbe 8374 1c3e
000003c0: 7431 08be 9341 243c b992 14be d0fe 0a3e
000003d0: 72ea cb3d f41c ec3d 9c4e aabd dbf0 b3bd
000003e0: 5e98 873c 6660 9abd 693c 3c3d fc95 a1bd
000003f0: 3de3 06be af8d 513d 3a5a 0bbe dd59 233e

blocks.0.CausalSelfAttn.W_V.bias f4 [42]
-0.14774294 0.09894163 0.08497083 -0.15549101 -0.0031462633 -0.028438386 0.08363978 -0.13148887
0.11668397 -0.12185061 0.040944707 -0.08394081 -0.12223485 -0.025383878 0.111651786 0.1277985
0.07386372 0.03420453 0.1421713 0.0062077236 -0.129205 0.007017066 -0.006448676 -0.09713481
0.052651543 -0.036214393 0.004181909 -0.14298464 0.14784601 0.037753593 0.12489403 -0.101792715
-0.13863651 0.106706984 0.1434398 -0.041895863 -0.03965803 0.1028746 0.09665118 -0.1661165
-0.06854195 -0.13477492
00000000: ed49 17be e9a1 ca3d 3005 ae3d 0939 1fbe
00000010: 8a31 4ebb 9ef7 e8bc 554b ab3d 05a5 06be
00000020: 01f8 ee3d d08c f9bd a3b5 273d 29e9 abbd
00000030: 4456 fabd daf1 cfbc b1a9 e43d 9cdd 023e
00000040: dd45 973d 0d1a 0c3d 5a95 113e 296a cb3b
00000050: 514e 04be 6aef e53b 6a4f d3bb 9eee c6bd
00000060: 25a9 573d 8b55 14bd 6508 893b 916a 12be
00000070: f264 173e 83a3 1a3d 71c8 ff3d b378 d0bd
00000080: bbf6 0dbe 3189 da3d e2e1 123e ff9a 2bbd
00000090: 7570 22bd ebaf d23d 0ef1 c53d 721a 2abe
000000a0: b95f 8cbd 7002 0abe

blocks.0.CausalSelfAttn.W_O.weight f4 [42, 42]
0.0360516 -0.04315686 -0.040288202 -0.0640421 0.053817246 -0.13926618 0.1344236 0.044930983
0.0070588007 -0.054311004 -0.08193301 0.07301894 0.05078127 0.06373815 0.09945293 0.15349683
-0.10417231 0.07416129 0.04552967 -0.048388954 -0.110101394 -0.13588254 0.032074593 -0.09695779
-0.12469593 -0.12536867 0.13149959 -0.13593048 0.15828241 0.11267559 -0.023413176 -0.0026442516
0.10815113 0.03547294 -0.036749654 -0.15335813 -0.114588365 -0.017926859 -0.02936678 -0.061919484
-0.029295523 0.08382989 0.11756742 0.035306063 -0.08140504 -0.022135999 0.02340139 0.05707789
-0.16892044 0.012743262 0.079258956 0.16245674 -0.13763946 -0.11763851 -0.057488535 -0.11179908
-0.0012735476 0.0045310874 -0.10209979 -0.12847042 0.00982678 -0.04216022 0.06254513 0.13066286
0.054977436 0.05386504 -0.15342091 0.08552289 0.05298675 0.15597214 -0.042133123 -0.07013795
-0.06502385 0.0013995306 -0.03980254 -0.13429593 0.123750865 -0.12798516 0.1169088 -0.029254759
0.1525141 -0.09510108 0.10454932 -0.12344369 0.13315482 -0.13563448 0.16116238 0.048579533
0.0016843856 -0.004915469 0.15956669 0.045498643 -0.014412147 -0.043455712 0.078081354 0.05889357
-0.12001896 -0.08427487 -0.021829419 -0.019162055 0.040586 0.068315655 0.110747665 0.095238455
-0.12053678 0.07316552 0.0696756 0.0823661 -0.0100799855 0.10862207 0.055945415 0.021983359
-0.0731045 -0.0086163 0.016988674 0.045481358 0.14006838 -0.037392113 0.1559525 0.06631915
-0.008374139 -0.027324986 0.0978708 0.013184737 0.03159696 0.058925543 0.048979316 -0.012771895
0.029870521 0.09529679 0.14282882 0.083384685 -0.09010571 0.08682408 -0.16650347 -0.0863988
0.043638226 0.023533214 0.004615116 -0.04901891 -0.12199231 0.06680917 0.12138445 0.13478263
0.053732682 0.093784355 0.102136716 -0.051460724 -0.020973632 0.0047604614 0.05189458 0.029480226
0.09658135 0.12818217 0.05315439 -0.09077611 0.060004678 0.13187946 -0.042382244 0.14385544
0.06780673 -0.11637344 0.13242324 -0.11086434 0.046627045 -0.087275766 0.024229234 -0.118277155
-0.116200596 0.010137422 -0.0025418722 -0.12255704 0.1484972 -0.002258962 -0.17912267 -0.08609272
-0.047755502 -0.0011525978 0.04903269 0.015399872 -0.09275102 -0.03936986 0.08659251 0.10047292
-0.16903545 -0.16808389 0.11109913 -0.10492022 -0.046702582 -0.058563527 0.15238106 -0.10010544
0.009680268 -0.1551034 0.10119762 -0.088568024 -0.11119517 -0.004636995 0.100110725 0.14230578
0.03975813 -0.05174712 -0.14776173 0.09940165 -0.05547222 0.0059054033 0.10219108 0.13557082
0.14065647 0.009298331 0.060341395 -0.082241364 0.049356923 -0.12984166 0.10435453 0.12721285
-0.07311985 0.015479441 -0.05875014 0.01862828 -0.16608556 -0.07719293 0.025294824 -0.06520066
0.07431928 -0.00018539748 -0.104045436 -0.0019897323 -0.0044840844 0.1343065 0.014976405 0.01890508
0.04799126 -0.023502432 -0.11561381 0.040363915 -0.12475481 -0.03941428 -0.015207837 0.07954265
-0.11188729 0.082000434 0.037703708 0.07274731 0.05419033 -0.053780716 -0.11350507 0.008735706
-0.13881104 0.124157466 -0.06393267 -0.15789843 0.01078589 -0.03133374 -0.05969474 0.12658104
00000000: d8aa 133d 3fc5 30bd 3e05 25bd 8128 83bd
00000010: 796f 5c3d cb9b 0ebe 57a6 093e 8d09 383d
00000020: 834d e73b 3775 5ebd 7ecc a7bd f48a 953d
00000030: 0500 503d 2689 823d faad cb3d 462e 1d3e
00000040: 4b58 d5bd e0e1 973d 527d 3a3d 7f33 46bd
00000050: d77c e1bd cb24 0bbe a660 033d ce91 c6bd
00000060: 9460 ffbd a560 00be d4a7 063e 5c31 0bbe
00000070: c914 223e 76c2 e63d fdcc bfbc 2e4b 2dbb
00000080: 577e dd3d 134c 113d ce86 16bd ea09 1dbe
00000090: 4ead eabd 59db 92bc 9a92 f0bc 499f 7dbd
000000a0: 2afd efbc 01af ab3d 30c7 f03d 179d 103d
000000b0: b0b7 a6bd 8e56 b5bc 46b4 bf3c 81ca 693d
000000c0: 7bf9 2cbe 1dc9 503c 8552 a23d 0f5b 263e
000000d0: 5cf1 0cbe 76ec f0bd 1979 6bbd ebf6 e4bd
000000e0: 2bed a6ba 8479 943b b219 d1bd c08d 03be
000000f0: 8100 213c 32b0 2cbd a917 803d 7ccc 053e
00000100: 0530 613d 97a1 5c3d 5f1a 1dbe a026 af3d
00000110: a208 593d 29b7 1f3e c893 2cbd 7ca4 8fbd
00000120: 392b 85bd 7470 b73a fd07 23bd df84 09be
00000130: 1871 fd3d 8b0e 03be e26d ef3d ada7 efbc
00000140: a82c 1c3e 5bc4 c2bd f41d d63d 0cd0 fcbd
00000150: bd59 083e c4e3 0abe c007 253e 55fb 463d
00000160: 9ac6 dc3a f111 a1bb 7365 233e c95c 3a3d
00000170: ed20 6cbc 9efe 31bd 1ee9 9f3d 623a 713d
00000180: 80cc f5bd 4e98 acbd 9cd3 b2bc bef9 9cbc
00000190: 813d 263d 14e9 8b3d accf e23d 610c c33d
000001a0: fddb f6bd ced7 953d 15b2 8e3d 8faf a83d
000001b0: 8626 25bc 3f75 de3d 0527 653d 7216 b43c
000001c0: d0b7 95bd 622b 0dbc d52b 8b3c a94a 3a3d
000001d0: 166e 0f3e 7928 19bd 03b2 1f3e 56d2 873d
000001e0: af33 09bc a6d8 dfbc 7c70 c83d cc04 583c
000001f0: d06b 013d e95b 713d 899e 483d 3641 51bc
00000200: 06b3 f43c f72a c33d b841 123e 97c5 aa3d
00000210: 5889 b8bd d3d0 b13d e37f 2abe dbf1 b0bd
00000220: ffbd 323d bac8 c03c 663a 973b 0dc8 48bd
00000230: 1bd7 f9bd 3fd3 883d 6998 f83d 7504 0a3e
00000240: cd16 5c3d 0312 c03d 0e2d d13d 7bc8 52bd
00000250: e5d0 abbc a5fd 9b3b 698f 543d 8480 f13c
00000260: 71cc c53d 3042 033e 6bb8 593d d3e8 b9bd
00000270: 77c7 753d 690b 073e 0199 2dbd d74e 133e
00000280: 41de 8a3d 3355 eebd f599 073e d80c e3bd
00000290: 00fc 3e3d a3bd b2bd 637c c63c 4b3b f2bd
000002a0: 94fa edbd 6e17 263c 8a95 26bb 2fff fabd
000002b0: a60f 183e 180b 14bb ef6b 37be 6151 b0bd
000002c0: 469b 43bd c412 97ba 80d6 483d bf4f 7c3c
000002d0: 3ff4 bdbd 4a42 21bd 6a57 b13d bfc4 cd3d
000002e0: a117 2dbe 2f1e 2cbe f187 e33d 6ae0 d6bd
000002f0: 354b 3fbd 4fe0 6fbd c809 1c3e 1504 cdbd
00000300: fd99 1e3c 6dd3 1ebe b340 cf3d 2763 b5bd
00000310: 4bba e3bd eff1 97bb da06 cd3d 9bb8 113e
00000320: 6cd9 223d caf4 53bd da4e 17be 1893 cb3d
00000330: d736 63bd 1d82 c13b 8f49 d13d 14d3 0a3e
00000340: 4008 103e 0758 183c 8a28 773d 296e a8bd
00000350: 7c2a 4a3d 36f5 04be d4b7 d53d 1644 023e
00000360: dcbf 95bd 7b9d 7d3c fda3 70bd 569a 983c
00000370: 5512 2abe 5417 9ebd 1737 cf3c ec87 85bd
00000380: b534 983d 4267 42b9 c615 d5bd 2b66 02bb
00000390: 3aef 92bb a587 093e 985f 753c d4de 9a3c
000003a0: 7c92 443d 2c88 c0bc efc6 ecbd a254 253d
000003b0: 737f ffbd de70 21bd 4b2a 79bc 42e7 a23d
000003c0: 2a25 e5bd d8ef a73d 346f 1a3d 8bfc 943d
000003d0: aef6 5d3d 2b49 5cbd 5975 e8bd 3520 0f3c
000003e0: 7b24 0ebe 4546 fe3d 22ef 82bd 20b0 21be
000003f0: 4db7 303c cf57 00bd 7982 74bd 769e 013e

blocks.0.CausalSelfAttn.W_O.bias f4 [42]
0.117936745 -0.09019539 0.15272161 0.0098903645 -0.12112749 -0.09874983 0.060754918 0.16472472
-0.08735295 0.07281589 -0.01391697 0.062240068 0.06306646 -0.057921458 0.16385853 -0.09848516
-0.12531565 -0.14158687 -0.051193926 0.09202472 0.04537598 -0.061437808 0.11659786 0.08061704
-0.12869371 0.057979643 0.064771995 -0.118453845 0.15099101 -0.054224186 0.006641626 0.06710734
-0.12054225 0.005011252 -0.029620158 0.15119332 0.07000877 0.1103003 0.1111001 0.09503287
0.07897107 0.022693362
00000000: d288 f13d 5cb8 b8bd 0e63 1c3e 320b 223c
00000010: b111 f8bd 5a3d cabd 26da 783d 99ad 283e
00000020: 1ae6 b2bd 7f20 953d 0104 64bc 71ef 7e3d
00000030: fd28 813d 0d3f 6dbd 88ca 273e 96b2 c9bd
00000040: bf52 00be 26fc 10be b9b0 51bd 7577 bc3d
00000050: 2adc 393d 36a6 7bbd dcca ee3d 8c1a a53d
00000060: 49c8 03be 107c 6d3d 2ea7 843d ee97 f2bd
00000070: 639d 1a3e 2e1a 5ebd ffa1 d93b 936f 893d
00000080: dbde f6bd 6e35 a43b f9a5 f2bc 6cd2 1a3e
00000090: c260 8f3d 20e5 e13d 7388 e33d 98a0 c23d
000000a0: 96bb a13d 6ee7 b93c

blocks.0.W1.weight f4 [126, 42]
-0.09724019 0.085013315 0.14523822 -0.13389325 -0.073207 -0.11390253 -0.17930381 0.03368827
-0.06328163 -0.0037096138 0.028852377 0.11784292 0.21674341 0.08516001 0.156611 -0.02489685
-0.011090644 -0.100723065 0.040857453 -0.09051589 0.023430528 0.13508251 0.18443418 0.070057
-0.052647475 0.15297107 0.12334664 0.07175683 -0.09842854 0.061588064 -0.043247323 0.004569558
-0.1182049 0.012137747 0.066525474 -0.12362072 0.1613355 -0.15902352 -0.052579325 -0.09433064
-0.10172985 -0.03987861 0.027985964 0.05497111 -0.14649977 -0.008425865 0.1294928 0.071111664
-0.024031226 0.0037772502 -0.021897042 0.01617462 -0.06259621 -0.072970144 -0.05063966 0.022681283
-0.1200502 0.018312462 0.107236646 0.17231114 0.1390026 0.007875346 -0.053429272 0.1138708
-0.0016937704 0.14167146 -0.11716133 0.13257661 -0.11203678 -0.11499365 0.138109 0.044259507
-0.059602857 -0.15592587 0.0692795 0.101838276 -0.0792639 0.0012068081 -0.023086658 0.013126311
-0.0205719 0.022182306 -0.110309996 -0.04325378 0.042401023 0.113703854 -0.07943147 0.008095317
-0.044014737 -0.08959502 -0.059387863 -0.17350167 0.14166537 -0.13037238 0.15001887 0.035910223
0.024008125 0.17666335 0.042111512 -0.062497813 0.080932684 0.07063965 -0.0507304 0.14315622
0.033890292 0.0810063 -0.09482673 0.08087135 0.07792111 0.13648711 -0.07357732 -0.03285407
0.051235314 -0.0068742977 0.17020197 0.046077076 0.02984273 0.0540198 -0.119439214 0.13509794
-0.017836874 0.024309395 0.1083968 0.18911275 -0.024262475 0.003774167 -0.11674622 0.15638368
-0.051130403 -0.044480193 -0.054487642 -0.11177348 -0.08173288 -0.13679089 0.08771559 0.096263304
0.0048811417 -0.18791835 -0.14926127 0.019776914 -0.0969765 0.22886607 0.10317882 -0.09213092
-0.13576183 -0.18576714 0.2258551 0.08494783 0.2118761 -0.03681682 -0.031478368 0.1687487
0.13599004 -0.08460402 -0.009433972 -0.07210632 0.08613644 0.045845818 -0.049706053 0.013793544
0.016185714 -0.00982299 0.013611924 0.04515312 -0.14968501 -0.00690205 0.2418074 0.11270615
-0.08301522 0.1779491 -0.055338807 -0.01137194 0.04181546 -0.007524614 -0.08957763 -0.04899972
0.13196748 0.0048062303 -0.16203117 0.13932365 -0.10401917 0.089409456 -0.15090203 0.09909193
0.03416171 0.109923296 -0.16457176 0.105051704 -0.14495979 -0.16007446 0.05111549 -0.13504696
0.1071875 -0.06733027 0.15127844 -0.083321825 0.13550188 -0.0037701142 -0.018685723 -2.2039603e-07
-0.13969119 0.06483002 0.056241035 -0.080735944 0.10675567 0.08780524 0.039439272 -0.0083037345
0.02469544 0.11980559 0.07608134 -0.071468554 -0.075881384 -0.01835778 -0.008332195 -0.12077542
0.1910918 0.03214292 0.06078293 0.13355722 0.080474995 0.19273025 0.052444473 0.0065624383
-0.09595375 -0.01015254 -0.005071604 0.17139022 0.10040757 -0.12172204 -0.027753724 0.002420839
-0.034802787 0.15280154 0.06663413 -0.012555058 0.06644028 0.03334776 0.03401959 0.017144358
0.06748001 0.21671766 -0.013994964 -0.17891213 -0.06222945 0.10472998 0.06109571 -0.073935434
-0.044905867 -0.10524771 0.1908995 0.09747005 -0.108357355 0.02034279 0.17792006 -0.001395328
00000000: dd25 c7bd 761b ae3d 54b9 143e 501b 09be
00000010: 8ded 95bd bb45 e9bd 6b9b 37be b6fc 093d
00000020: cd99 81bd fe1c 73bb d25b ec3c a157 f13d
00000030: fcf1 5d3e 5f68 ae3d a25e 203e 7bf4 cbbc
00000040: 88b5 35bc e547 cebd 255a 273d 6560 b9bd
00000050: 61f1 bf3c 1253 0a3e 50dc 3c3e 0b7a 8f3d
00000060: e1a4 57bd 73a4 1c3e 2a9d fc3d 3ff5 923d
00000070: e794 c9bd c443 7c3d 1b24 31bd 3bbc 953b
00000080: 6915 f2bd 67dd 463c 823e 883d dc2c fdbd
00000090: 2235 253e 10d7 22be 6b5d 57bd 6c30 c1bd
000000a0: bd57 d0bd c157 23bd d242 e53c 6329 613d
000000b0: 0904 16be a40c 0abc c399 043e fea2 913d
000000c0: 22dd c4bc be8b 773b 6d61 b3bc a380 843c
000000d0: 7132 80bd 5f71 95bd 886b 4fbd 19ce b93c
000000e0: e1dc f5bd 0404 963c e39e db3d 5572 303e
000000f0: b356 0e3e 9807 013c a7d8 5abd 1835 e93d
00000100: 8101 deba 5312 113e 48f2 efbd 2ac2 073e
00000110: 8a73 e5bd ca81 ebbd 726c 0d3e 7549 353d
00000120: 2022 74bd 08ab 1fbe 69e2 8d3d 9690 d03d
00000130: 1d55 a2bd c32d 9e3a 3b20 bdbc bd0f 573c
00000140: 6786 a8bc abb7 b53c 35ea e1bd e02a 31bd
00000150: b2ac 2d3d 91dd e83d f7ac a2bd 38a2 043c
00000160: cc48 34bd 987d b7bd b040 73bd 6caa 31be
00000170: ba10 113e 5680 05be 8c9e 193e 9916 133d
00000180: b0ac c43c 3de7 343e 1f7d 2c3d b5fd 7fbd
00000190: 09c0 a53d 85ab 903d aeca 4fbd 8b97 123e
000001a0: 8cd0 0a3d a2e6 a53d 8434 c2bd e19f a53d
000001b0: 1a95 9f3d 47c3 0b3e b5af 96bd fd91 06bd
000001c0: 1fdc 513d ca41 e1bb 6d49 2e3e 51bb 3c3d
000001d0: be78 f43c de43 5d3d 8c9c f4bd 1d57 0a3e
000001e0: a31e 92bc 7f24 c73c 24ff dd3d c6a6 413e
000001f0: 19c2 c6bc 0458 773b a418 efbd 0b23 203e
00000200: 1d6e 51bd dd30 36bd 6f2e 5fbd 7fe9 e4bd
00000210: 9163 a7bd e912 0cbe 3ba4 b33d b225 c53d
00000220: fcf1 9f3b ab6d 40be f2d7 18be 3203 a23c
00000230: 9d9b c6bd de5b 6a3e 6b4f d33d 23af bcbd
00000240: 2605 0bbe be39 3ebe 8f46 673e 21f9 ad3d
00000250: 0cf6 583e 3ccd 16bd 76ef 00bd 76cc 2c3e
00000260: f940 0b3e df44 adbd f290 1abc 7aac 93bd
00000270: 4d68 b03d d3c8 3b3d 9398 4bbd 51fe 613c
00000280: e797 843c 9bf0 20bc 8c04 5f3c 7af2 383d
00000290: 0747 19be 982a e2bb 5c9c 773e 7bd2 e63d
000002a0: e203 aabd 4a38 363e f2aa 62bd 6051 3abc
000002b0: b046 2b3d 0a91 f6bb 7a74 b7bd eeb3 48bd
000002c0: 7c22 073e 957d 9d3b 80eb 25be dcaa 0e3e
000002d0: 0108 d5bd 4e1c b73d 1086 1abe b6f0 ca3d
000002e0: 26ed 0b3d 771f e13d 8085 28be 5925 d73d
000002f0: 5770 14be 8fea 23be 7a5e 513d c049 0abe
00000300: 1f85 db3d 74e4 89bd bce8 1a3e a2a4 aabd
00000310: 01c1 0a3e 0514 77bb cd12 99bc 00a6 6cb4
00000320: 350b 0fbe 9ac5 843d 005d 663d e358 a5bd
00000330: b7a2 da3d 3cd3 b33d 138b 213d 630c 08bc
00000340: 174e ca3c a25c f53d 89d0 9b3d 1b5e 92bd
00000350: b367 9bbd 0e63 96bc c283 08bc 1a59 f7bd
00000360: 92ad 433e 4ba8 033d 86f7 783d 39c3 083e
00000370: 13d0 a43d 145b 453e 04d0 563d b909 d73b
00000380: 6683 c4bd d756 26bc b32f a6bb eb80 2f3e
00000390: 7ca2 cd3d 6849 f9bd c75b e3bc f0a6 1e3b
000003a0: 5e8d 0ebd 0278 1c3e 7a77 883d bbb3 4dbc
000003b0: d711 883d a997 083d 2058 0b3d 5372 8c3c
000003c0: f632 8a3d 3ceb 5d3e 224b 65bc be34 37be
000003d0: 4fe4 7ebd ac7c d63d 7f3f 7a3d 766b 97bd
000003e0: 37ef 37bd 1d8c d7bd 297b 433e 619e c73d
000003f0: 76ea ddbd eca5 a63c ad30 363e 70e3 b6ba

blocks.0.W1.bias f4 [126]
0.03665614 -0.02552107 0.18175916 0.03981476 0.12480231 0.09650823 -0.056473497 0.1931352
-0.09404198 0.14023598 0.10283585 0.089773394 0.04966858 0.12514992 -0.03846795 -0.036979795
0.009219609 0.0032417572 -0.08550645 0.15572055 -0.04372485 -0.013536882 0.1449076 -0.07625871
0.16665411 0.06217516 -0.06714685 -0.06909607 0.10614085 0.12192397 0.0880997 0.13927925
0.10242377 -0.122650534 0.13986558 0.17790115 -0.07354028 -0.059692606 -0.12231622 0.15388961
0.10205092 0.03841671 -0.114897884 0.029805332 0.026563592 -0.07581526 0.07799083 -0.119094744
0.11526952 0.15916528 -0.09057597 0.03948508 -0.102761015 0.013407428 0.004443667 -0.083800085
-0.05630817 -0.04455682 -0.074858576 0.0018163213 -0.091157526 -0.008062572 0.08498271 0.10184979
-0.0344807 -0.12313063 -0.11661428 -0.0681669 -0.12214825 0.016213063 0.12599996 0.063437685
-0.041752856 -0.08269128 -0.09595464 0.14408232 -0.12965791 -0.07143729 0.09098321 0.029708521
0.017842073 0.052587852 0.023118764 -0.143211 0.12030757 -0.12479322 0.13885996 -0.039247792
0.1360134 0.07142776 -0.106035575 -0.040818624 -0.086785026 -0.05145052 0.049396265 0.13239808
0.024005948 -0.1435615 0.14764239 -0.02678209 -0.072577454 0.15913327 0.071259014 -0.10550234
-0.011748237 0.08849394 0.13785914 -0.018023591 0.03461017 0.17102122 0.01200718 0.04972607
0.09103351 0.12478958 0.13520658 -0.031432647 0.14019649 -0.07608334 0.07385543 0.14625244
-0.053479224 0.07282743 -0.08599245 -0.017480696 -0.034993384 0.008558324
00000000: c024 163d 9011 d1bc 131f 3a3e cd14 233d
00000010: 5a98 ff3d 1ba6 c53d c150 67bd 3cc5 453e
00000020: 1599 c0bd 059a 0f3e 9a9b d23d 1ddb b73d
00000030: 4871 4b3d 4d27 003e 9290 1dbd 2078 17bd
00000040: d80d 173c a973 543b 011e afbd 3575 1f3e
00000050: d418 33bd ccc9 5dbc a862 143e 872d 9cbd
00000060: 60a7 2a3e 61ab 7e3d 4a84 89bd 3e82 8dbd
00000070: 6060 d93d 46b3 f93d 9e6d b43d 389f 0e3e
00000080: 8ec3 d13d 3430 fbbd ec38 0f3e b82b 363e
00000090: 499c 96bd 3c80 74bd ed80 fabd 3d95 1d3e
000000a0: 1300 d13d d75a 1d3d 954f ebbd 502a f43c
000000b0: e49b d93c 0845 9bbd a8b9 9f3d f2e7 f3bd
000000c0: 6d12 ec3d 39fc 223e e57f b9bd 1bbb 213d
000000d0: 5e74 d2bd d4aa 5b3c 2e9c 913b 619f abbd
000000e0: 65a3 66bd 3681 36bd 744f 99bd a111 ee3a
000000f0: ccb0 babd e118 04bc 6a0b ae3d 9f96 d03d
00000100: a23b 0dbd e92b fcbd 78d3 eebd 169b 8bbd
00000110: dd28 fabd 42d1 843c 2206 013e 9eeb 813d
00000120: 0b05 2bbd 0c5a a9bd de83 c4bd 518a 133e
00000130: 0bc5 04be b74d 92bd 6855 ba3d 495f f33c
00000140: 8a29 923c 5c66 573d 9063 bd3c e8a5 12be
00000150: d163 f63d 9693 ffbd 4e31 0e3e 4bc2 20bd
00000160: 1947 0b3e b848 923d 2e29 d9bd 6e31 27bd
00000170: 59bc b1bd c8bd 52bd bd53 4a3d 5d93 073e
00000180: 1fa8 c43c c901 13be 912f 173e 1d66 dbbc
00000190: 7da3 94bd d5f3 223e 3ff0 913d 9c11 d8bd
000001a0: ad7b 40bc 503c b53d f22a 0d3e 36a6 93bc
000001b0: 65c3 0d3d 3020 2f3e c3b9 443c 90ad 4b3d
000001c0: c76f ba3d ae91 ff3d 9873 0a3e 85bf 00bd
000001d0: ab8f 0f3e 95d1 9bbd 8441 973d 33c3 153e
000001e0: 080d 5bbd 8c26 953d cf1c b0bd ad33 8fbc
000001f0: 3955 0fbd 3638 0c3c
